Neural Network Tools for STM32AI v1.6.0 (STM.ai v7.1.0-RC3)
Created date          : 2022-02-25 16:37:59
Parameters            : generate --name n4ced_v02 -m C:/Users/j.tschavoll/OneDrive - FH Vorarlberg/Partnerunternehmen FHV/FH/BA/Code/Jupyter/N4CED_V-0-2/N4CED_V-0-2_lite.tflite --type tflite --compression 1 --verbosity 1 --workspace C:\Users\JDA1E~1.TSC\AppData\Local\Temp\mxAI_workspace10197635367300015560658844402345395 --output C:\Users\j.tschavoll\.stm32cubemx\n4ced_v02_output

Exec/report summary (generate)
------------------------------------------------------------------------------------------------------------------------
model file            : C:\Users\j.tschavoll\OneDrive - FH Vorarlberg\Partnerunternehmen FHV\FH\BA\Code\Jupyter\N4CED_V-0-2\N4CED_V-0-2_lite.tflite
type                  : tflite
c_name                : n4ced_v02
compression           : None
workspace dir         : C:\Users\JDA1E~1.TSC\AppData\Local\Temp\mxAI_workspace10197635367300015560658844402345395
output dir            : C:\Users\j.tschavoll\.stm32cubemx\n4ced_v02_output
model_name            : N4CED_V02_lite
model_hash            : dbd11f49d2f2827ffaa2cd3ff5de195b
input 1/1             : 'serving_default_conv2d_input0'
                        1344 items, 5.25 KiB, ai_float, float, (1,48,28,1), domain:user/
output 1/1            : 'nl_8'
                        7 items, 28 B, ai_float, float, (1,1,1,7), domain:user/
params #              : 185,559 items (724.84 KiB)
macc                  : 5,028,040
weights (ro)          : 742,236 B (724.84 KiB) (1 segment)
activations (rw)      : 40,896 B (39.94 KiB) (1 segment)
ram (total)           : 46,300 B (45.21 KiB) = 40,896 + 5,376 + 28

Model name - N4CED_V02_lite ['serving_default_conv2d_input0'] ['nl_8']
--------------------------------------------------------------------------------------------------------------------------------------------------------------------------------
id   layer (type)                            oshape         param/size        macc        connected to                    |   c_size   c_macc             c_type               
--------------------------------------------------------------------------------------------------------------------------------------------------------------------------------
0    serving_default_conv2d_input0 (Input)   (1,48,28,1)                                                                  |                              
     conv2d_0 (Conv2D)                       (1,48,28,24)   240/960           290,328     serving_default_conv2d_input0   |            +32,256(+11.1%)    optimized_conv2d()[0]
--------------------------------------------------------------------------------------------------------------------------------------------------------------------------------
1    pool_1 (Pool)                           (1,24,14,24)                     32,256      conv2d_0                        |            -32,256(-100.0%)  
     nl_1_nl (Nonlinearity)                  (1,24,14,24)                     8,064       pool_1                          |                               nl()[1]              
--------------------------------------------------------------------------------------------------------------------------------------------------------------------------------
2    conv2d_2 (Conv2D)                       (1,24,14,48)   10,416/41,664     3,483,696   nl_1_nl                         |            +16,128(+0.5%)     optimized_conv2d()[2]
--------------------------------------------------------------------------------------------------------------------------------------------------------------------------------
3    pool_3 (Pool)                           (1,12,7,48)                      16,128      conv2d_2                        |            -16,128(-100.0%)  
     nl_3_nl (Nonlinearity)                  (1,12,7,48)                      4,032       pool_3                          |                               nl()[3]              
--------------------------------------------------------------------------------------------------------------------------------------------------------------------------------
4    conv2d_4 (Conv2D)                       (1,10,5,48)    20,784/83,136     1,036,848   nl_3_nl                         |            +2,400(+0.2%)      conv2d()[4]          
     nl_4_nl (Nonlinearity)                  (1,10,5,48)                      2,400       conv2d_4                        |            -2,400(-100.0%)   
--------------------------------------------------------------------------------------------------------------------------------------------------------------------------------
5    reshape_5 (Reshape)                     (1,1,1,2400)                                 nl_4_nl                         |                              
--------------------------------------------------------------------------------------------------------------------------------------------------------------------------------
6    dense_6 (Dense)                         (1,1,1,64)     153,664/614,656   153,664     reshape_5                       |                               dense()[5]           
     nl_6_nl (Nonlinearity)                  (1,1,1,64)                       64          dense_6                         |                               nl()[6]              
--------------------------------------------------------------------------------------------------------------------------------------------------------------------------------
7    dense_7 (Dense)                         (1,1,1,7)      455/1,820         455         nl_6_nl                         |                               dense()[7]           
--------------------------------------------------------------------------------------------------------------------------------------------------------------------------------
8    nl_8 (Nonlinearity)                     (1,1,1,7)                        105         dense_7                         |                               nl()/o[8]            
--------------------------------------------------------------------------------------------------------------------------------------------------------------------------------
model/c-model: macc=5,028,040/5,028,040  weights=742,236/742,236  activations=--/40,896 io=--/5,404



Generated C-graph summary
------------------------------------------------------------------------------------------------------------------------
model name            : n4ced_v02_lite
c-name                : n4ced_v02
c-node #              : 9
c-array #             : 22
activations size      : 40896 (1 segments)
weights size          : 742236 (1 segments)
macc                  : 5028040
inputs                : ['serving_default_conv2d_input0_output']
outputs               : ['nl_8_output']

C-Arrays (22)
----------------------------------------------------------------------------------------------------------------------
c_id   name (*_array)                         item/size       domain/mem-pool           c-type        fmt     comment
----------------------------------------------------------------------------------------------------------------------
0      serving_default_conv2d_input0_output   1344/5376       user/                     float         float   /input 
1      conv2d_0_output                        8064/32256      activations/**default**   float         float          
2      nl_1_nl_output                         8064/32256      activations/**default**   float         float          
3      conv2d_2_output                        4032/16128      activations/**default**   float         float          
4      nl_3_nl_output                         4032/16128      activations/**default**   float         float          
5      conv2d_4_output                        2400/9600       activations/**default**   float         float          
6      dense_6_output                         64/256          activations/**default**   float         float          
7      nl_6_nl_output                         64/256          activations/**default**   float         float          
8      dense_7_output                         7/28            activations/**default**   float         float          
9      nl_8_output                            7/28            user/                     float         float   /output
10     conv2d_0_weights                       216/864         weights/                  const float   float          
11     conv2d_0_bias                          24/96           weights/                  const float   float          
12     conv2d_2_weights                       10368/41472     weights/                  const float   float          
13     conv2d_2_bias                          48/192          weights/                  const float   float          
14     conv2d_4_weights                       20736/82944     weights/                  const float   float          
15     conv2d_4_bias                          48/192          weights/                  const float   float          
16     dense_6_weights                        153600/614400   weights/                  const float   float          
17     dense_6_bias                           64/256          weights/                  const float   float          
18     dense_7_weights                        448/1792        weights/                  const float   float          
19     dense_7_bias                           7/28            weights/                  const float   float          
20     conv2d_0_scratch0                      1344/5376       activations/**default**   float         float          
21     conv2d_2_scratch0                      1344/5376       activations/**default**   float         float          
----------------------------------------------------------------------------------------------------------------------

C-Layers (9)
--------------------------------------------------------------------------------------------------------------------------------
c_id   name (*_layer)   id   layer_type         macc      rom      tensors                                   shape (array id)  
--------------------------------------------------------------------------------------------------------------------------------
0      conv2d_0         1    optimized_conv2d   322584    960      I: serving_default_conv2d_input0_output   (1,48,28,1) (0)   
                                                                   S: conv2d_0_scratch0                                        
                                                                   W: conv2d_0_weights                       (1,24,3,3) (10)   
                                                                   W: conv2d_0_bias                          (1,1,1,24) (11)   
                                                                   O: conv2d_0_output                        (1,24,14,24) (1)  
--------------------------------------------------------------------------------------------------------------------------------
1      nl_1_nl          1    nl                 8064      0        I: conv2d_0_output                        (1,24,14,24) (1)  
                                                                   O: nl_1_nl_output                         (1,24,14,24) (2)  
--------------------------------------------------------------------------------------------------------------------------------
2      conv2d_2         3    optimized_conv2d   3499824   41664    I: nl_1_nl_output                         (1,24,14,24) (2)  
                                                                   S: conv2d_2_scratch0                                        
                                                                   W: conv2d_2_weights                       (24,48,3,3) (12)  
                                                                   W: conv2d_2_bias                          (1,1,1,48) (13)   
                                                                   O: conv2d_2_output                        (1,12,7,48) (3)   
--------------------------------------------------------------------------------------------------------------------------------
3      nl_3_nl          3    nl                 4032      0        I: conv2d_2_output                        (1,12,7,48) (3)   
                                                                   O: nl_3_nl_output                         (1,12,7,48) (4)   
--------------------------------------------------------------------------------------------------------------------------------
4      conv2d_4         4    conv2d             1039248   83136    I: nl_3_nl_output                         (1,12,7,48) (4)   
                                                                   W: conv2d_4_weights                       (48,48,3,3) (14)  
                                                                   W: conv2d_4_bias                          (1,1,1,48) (15)   
                                                                   O: conv2d_4_output                        (1,10,5,48) (5)   
--------------------------------------------------------------------------------------------------------------------------------
5      dense_6          6    dense              153664    614656   I: conv2d_4_output0                       (1,1,1,2400) (5)  
                                                                   W: dense_6_weights                        (2400,1,1,64) (16)
                                                                   W: dense_6_bias                           (1,1,1,64) (17)   
                                                                   O: dense_6_output                         (1,1,1,64) (6)    
--------------------------------------------------------------------------------------------------------------------------------
6      nl_6_nl          6    nl                 64        0        I: dense_6_output                         (1,1,1,64) (6)    
                                                                   O: nl_6_nl_output                         (1,1,1,64) (7)    
--------------------------------------------------------------------------------------------------------------------------------
7      dense_7          7    dense              455       1820     I: nl_6_nl_output                         (1,1,1,64) (7)    
                                                                   W: dense_7_weights                        (64,1,1,7) (18)   
                                                                   W: dense_7_bias                           (1,1,1,7) (19)    
                                                                   O: dense_7_output                         (1,1,1,7) (8)     
--------------------------------------------------------------------------------------------------------------------------------
8      nl_8             8    nl                 105       0        I: dense_7_output                         (1,1,1,7) (8)     
                                                                   O: nl_8_output                            (1,1,1,7) (9)     
--------------------------------------------------------------------------------------------------------------------------------



Complexity report per layer - macc=5,028,040 weights=742,236 act=40,896 ram_io=5,404
-------------------------------------------------------------------------
id   name       c_macc                    c_rom                     c_id
-------------------------------------------------------------------------
0    conv2d_0   ||                 6.4%   |                  0.1%   [0] 
1    nl_1_nl    |                  0.2%   |                  0.0%   [1] 
2    conv2d_2   ||||||||||||||||  69.6%   ||                 5.6%   [2] 
3    nl_3_nl    |                  0.1%   |                  0.0%   [3] 
4    conv2d_4   |||||             20.7%   |||               11.2%   [4] 
6    dense_6    |                  3.1%   ||||||||||||||||  82.8%   [5] 
6    nl_6_nl    |                  0.0%   |                  0.0%   [6] 
7    dense_7    |                  0.0%   |                  0.2%   [7] 
8    nl_8       |                  0.0%   |                  0.0%   [8] 

Generated files (5)
-------------------------------------------------------------------------------
C:\Users\j.tschavoll\.stm32cubemx\n4ced_v02_output\n4ced_v02_config.h
C:\Users\j.tschavoll\.stm32cubemx\n4ced_v02_output\n4ced_v02.h
C:\Users\j.tschavoll\.stm32cubemx\n4ced_v02_output\n4ced_v02.c
C:\Users\j.tschavoll\.stm32cubemx\n4ced_v02_output\n4ced_v02_data.h
C:\Users\j.tschavoll\.stm32cubemx\n4ced_v02_output\n4ced_v02_data.c
