Neural Network Tools for STM32AI v1.6.0 (STM.ai v7.1.0-RC3)
Created date          : 2022-05-05 08:18:22
Parameters            : generate --name cnn -m C:/Users/j.tschavoll/OneDrive - FH Vorarlberg/Partnerunternehmen FHV/FH/BA/Code/Jupyter/esc50_model_v9/esc50_model_v9_lite.tflite --type tflite --compression 4 --verbosity 1 --workspace C:\Users\JDA1E~1.TSC\AppData\Local\Temp\mxAI_workspace33818782314004422840911500765291 --output C:\Users\j.tschavoll\.stm32cubemx\cnn_output

Exec/report summary (generate)
------------------------------------------------------------------------------------------------------------------------
model file            : C:\Users\j.tschavoll\OneDrive - FH Vorarlberg\Partnerunternehmen FHV\FH\BA\Code\Jupyter\esc50_model_v9\esc50_model_v9_lite.tflite
type                  : tflite
c_name                : cnn
compression           : 4
workspace dir         : C:\Users\JDA1E~1.TSC\AppData\Local\Temp\mxAI_workspace33818782314004422840911500765291
output dir            : C:\Users\j.tschavoll\.stm32cubemx\cnn_output
model_name            : esc50_model_v9_lite
model_hash            : b9d54320feb10be59a1eef8ebf2a51f3
input 1/1             : 'serving_default_conv2d_3_input0'
                        700 items, 2.73 KiB, ai_float, float, (1,25,28,1), domain:user/
output 1/1            : 'nl_8'
                        5 items, 20 B, ai_float, float, (1,1,1,5), domain:user/
params #              : 105,941 items (413.83 KiB)
macc                  : 5,653,608
weights (ro)          : 369,492 B (360.83 KiB) / -54,272(-12.8%) vs original model (1 segment)
activations (rw)      : 26,496 B (25.88 KiB) (1 segment)
ram (total)           : 29,316 B (28.63 KiB) = 26,496 + 2,800 + 20

Model name - esc50_model_v9_lite ['serving_default_conv2d_3_input0'] ['nl_8']
--------------------------------------------------------------------------------------------------------------------------------------------------------------------------------------------
id   layer (type)                              oshape         param/size       macc        connected to                      |   c_size            c_macc             c_type               
--------------------------------------------------------------------------------------------------------------------------------------------------------------------------------------------
0    serving_default_conv2d_3_input0 (Input)   (1,25,28,1)                                                                   |                                       
     conv2d_0 (Conv2D)                         (1,25,28,24)   624/2,496        420,024     serving_default_conv2d_3_input0   |                     +16,128(+3.8%)     optimized_conv2d()[0]
--------------------------------------------------------------------------------------------------------------------------------------------------------------------------------------------
1    pool_1 (Pool)                             (1,12,14,24)                    16,128      conv2d_0                          |                     -16,128(-100.0%)  
     nl_1_nl (Nonlinearity)                    (1,12,14,24)                    4,032       pool_1                            |                                        nl()[1]              
--------------------------------------------------------------------------------------------------------------------------------------------------------------------------------------------
2    conv2d_2 (Conv2D)                         (1,12,14,48)   28,848/115,392   4,838,448   nl_1_nl                           |                     +8,064(+0.2%)      optimized_conv2d()[2]
--------------------------------------------------------------------------------------------------------------------------------------------------------------------------------------------
3    pool_3 (Pool)                             (1,6,7,48)                      8,064       conv2d_2                          |                     -8,064(-100.0%)   
     nl_3_nl (Nonlinearity)                    (1,6,7,48)                      2,016       pool_3                            |                                        nl()[3]              
--------------------------------------------------------------------------------------------------------------------------------------------------------------------------------------------
4    conv2d_4 (Conv2D)                         (1,2,3,48)     57,648/230,592   345,648     nl_3_nl                           |                     +288(+0.1%)        conv2d()[4]          
     nl_4_nl (Nonlinearity)                    (1,2,3,48)                      288         conv2d_4                          |                     -288(-100.0%)     
--------------------------------------------------------------------------------------------------------------------------------------------------------------------------------------------
5    reshape_5 (Reshape)                       (1,1,1,288)                                 nl_4_nl                           |                                       
--------------------------------------------------------------------------------------------------------------------------------------------------------------------------------------------
6    dense_6 (Dense)                           (1,1,1,64)     18,496/73,984    18,496      reshape_5                         |   -54,272(-73.4%)                      dense(c8)[5]         
     nl_6_nl (Nonlinearity)                    (1,1,1,64)                      64          dense_6                           |                                        nl()[6]              
--------------------------------------------------------------------------------------------------------------------------------------------------------------------------------------------
7    dense_7 (Dense)                           (1,1,1,5)      325/1,300        325         nl_6_nl                           |                                        dense()[7]           
--------------------------------------------------------------------------------------------------------------------------------------------------------------------------------------------
8    nl_8 (Nonlinearity)                       (1,1,1,5)                       75          dense_7                           |                                        nl()/o[8]            
--------------------------------------------------------------------------------------------------------------------------------------------------------------------------------------------
model/c-model: macc=5,653,608/5,653,608  weights=423,764/369,492 -54,272(-12.8%) activations=--/26,496 io=--/2,820



Generated C-graph summary
------------------------------------------------------------------------------------------------------------------------
model name            : esc50_model_v9_lite
c-name                : cnn
c-node #              : 9
c-array #             : 22
activations size      : 26496 (1 segments)
weights size          : 369492 (1 segments)
macc                  : 5653608
inputs                : ['serving_default_conv2d_3_input0_output']
outputs               : ['nl_8_output']

C-Arrays (22)
---------------------------------------------------------------------------------------------------------------------------
c_id   name (*_array)                           item/size      domain/mem-pool           c-type        fmt         comment
---------------------------------------------------------------------------------------------------------------------------
0      serving_default_conv2d_3_input0_output   700/2800       user/                     float         float       /input 
1      conv2d_0_output                          4032/16128     activations/**default**   float         float              
2      nl_1_nl_output                           4032/16128     activations/**default**   float         float              
3      conv2d_2_output                          2016/8064      activations/**default**   float         float              
4      nl_3_nl_output                           2016/8064      activations/**default**   float         float              
5      conv2d_4_output                          288/1152       activations/**default**   float         float              
6      dense_6_output                           64/256         activations/**default**   float         float              
7      nl_6_nl_output                           64/256         activations/**default**   float         float              
8      dense_7_output                           5/20           activations/**default**   float         float              
9      nl_8_output                              5/20           user/                     float         float       /output
10     conv2d_0_weights                         600/2400       weights/                  const float   float              
11     conv2d_0_bias                            24/96          weights/                  const float   float              
12     conv2d_2_weights                         28800/115200   weights/                  const float   float              
13     conv2d_2_bias                            48/192         weights/                  const float   float              
14     conv2d_4_weights                         57600/230400   weights/                  const float   float              
15     conv2d_4_bias                            48/192         weights/                  const float   float              
16     dense_6_weights                          18432/19456    weights/                  const float   c8 (LUT8)          
17     dense_6_bias                             64/256         weights/                  const float   float              
18     dense_7_weights                          320/1280       weights/                  const float   float              
19     dense_7_bias                             5/20           weights/                  const float   float              
20     conv2d_0_scratch0                        1344/5376      activations/**default**   float         float              
21     conv2d_2_scratch0                        1344/5376      activations/**default**   float         float              
---------------------------------------------------------------------------------------------------------------------------

C-Layers (9)
---------------------------------------------------------------------------------------------------------------------------------
c_id   name (*_layer)   id   layer_type         macc      rom      tensors                                     shape (array id) 
---------------------------------------------------------------------------------------------------------------------------------
0      conv2d_0         1    optimized_conv2d   436152    2496     I: serving_default_conv2d_3_input0_output   (1,25,28,1) (0)  
                                                                   S: conv2d_0_scratch0                                         
                                                                   W: conv2d_0_weights                         (1,24,5,5) (10)  
                                                                   W: conv2d_0_bias                            (1,1,1,24) (11)  
                                                                   O: conv2d_0_output                          (1,12,14,24) (1) 
---------------------------------------------------------------------------------------------------------------------------------
1      nl_1_nl          1    nl                 4032      0        I: conv2d_0_output                          (1,12,14,24) (1) 
                                                                   O: nl_1_nl_output                           (1,12,14,24) (2) 
---------------------------------------------------------------------------------------------------------------------------------
2      conv2d_2         3    optimized_conv2d   4846512   115392   I: nl_1_nl_output                           (1,12,14,24) (2) 
                                                                   S: conv2d_2_scratch0                                         
                                                                   W: conv2d_2_weights                         (24,48,5,5) (12) 
                                                                   W: conv2d_2_bias                            (1,1,1,48) (13)  
                                                                   O: conv2d_2_output                          (1,6,7,48) (3)   
---------------------------------------------------------------------------------------------------------------------------------
3      nl_3_nl          3    nl                 2016      0        I: conv2d_2_output                          (1,6,7,48) (3)   
                                                                   O: nl_3_nl_output                           (1,6,7,48) (4)   
---------------------------------------------------------------------------------------------------------------------------------
4      conv2d_4         4    conv2d             345936    230592   I: nl_3_nl_output                           (1,6,7,48) (4)   
                                                                   W: conv2d_4_weights                         (48,48,5,5) (14) 
                                                                   W: conv2d_4_bias                            (1,1,1,48) (15)  
                                                                   O: conv2d_4_output                          (1,2,3,48) (5)   
---------------------------------------------------------------------------------------------------------------------------------
5      dense_6          6    dense              18496     19712    I: conv2d_4_output0                         (1,1,1,288) (5)  
                                                                   W: dense_6_weights                          (288,1,1,64) (16)
                                                                   W: dense_6_bias                             (1,1,1,64) (17)  
                                                                   O: dense_6_output                           (1,1,1,64) (6)   
---------------------------------------------------------------------------------------------------------------------------------
6      nl_6_nl          6    nl                 64        0        I: dense_6_output                           (1,1,1,64) (6)   
                                                                   O: nl_6_nl_output                           (1,1,1,64) (7)   
---------------------------------------------------------------------------------------------------------------------------------
7      dense_7          7    dense              325       1300     I: nl_6_nl_output                           (1,1,1,64) (7)   
                                                                   W: dense_7_weights                          (64,1,1,5) (18)  
                                                                   W: dense_7_bias                             (1,1,1,5) (19)   
                                                                   O: dense_7_output                           (1,1,1,5) (8)    
---------------------------------------------------------------------------------------------------------------------------------
8      nl_8             8    nl                 75        0        I: dense_7_output                           (1,1,1,5) (8)    
                                                                   O: nl_8_output                              (1,1,1,5) (9)    
---------------------------------------------------------------------------------------------------------------------------------



Complexity report per layer - macc=5,653,608 weights=369,492 act=26,496 ram_io=2,820
-------------------------------------------------------------------------
id   name       c_macc                    c_rom                     c_id
-------------------------------------------------------------------------
0    conv2d_0   ||                 7.7%   |                  0.7%   [0] 
1    nl_1_nl    |                  0.1%   |                  0.0%   [1] 
2    conv2d_2   ||||||||||||||||  85.7%   ||||||||          31.2%   [2] 
3    nl_3_nl    |                  0.0%   |                  0.0%   [3] 
4    conv2d_4   ||                 6.1%   ||||||||||||||||  62.4%   [4] 
6    dense_6    |                  0.3%   ||                 5.3%   [5] 
6    nl_6_nl    |                  0.0%   |                  0.0%   [6] 
7    dense_7    |                  0.0%   |                  0.4%   [7] 
8    nl_8       |                  0.0%   |                  0.0%   [8] 

Generated files (5)
-------------------------------------------------------------------
C:\Users\j.tschavoll\.stm32cubemx\cnn_output\cnn_config.h
C:\Users\j.tschavoll\.stm32cubemx\cnn_output\cnn.h
C:\Users\j.tschavoll\.stm32cubemx\cnn_output\cnn.c
C:\Users\j.tschavoll\.stm32cubemx\cnn_output\cnn_data.h
C:\Users\j.tschavoll\.stm32cubemx\cnn_output\cnn_data.c
